…
_IncompatibleKeys(missing_keys=['classifier.classifier.l.weight', 'classifier.classifier.l.bias'], unexpected_keys=['classifier.classifier_dist.bn.weight', 'classifier.classifier_dist.bn.bias', 'classifier.classifier_dist.bn.running_mean', 'classifier.classifier_dist.bn.running_var', 'classifier.classifier_dist.bn.num_batches_tracked', 'classifier.classifier_dist.l.weight', 'classifier.classifier_dist.l.bias'])
number of params: 13720008
/home/lab/miniconda3/envs/repvit/lib/python3.8/site-packages/timm/utils/cuda.py:40: FutureWarning: `torch.cuda.amp.GradScaler(args...)` is deprecated. Please use `torch.amp.GradScaler('cuda', args...)` instead.
  self._scaler = torch.cuda.amp.GradScaler()
RepViT(
  (features): ModuleList(
    (0): Sequential(
      (0): Conv2d_BN(
        (c): Conv2d(3, 32, kernel_size=(3, 3), stride=(2, 2), padding=(1, 1), bias=False)
        (bn): BatchNorm2d(32, eps=1e-05, momentum=0.1, affine=True, track_running_stats=True)
      )
      (1): GELU(approximate='none')
      (2): Conv2d_BN(
        (c): Conv2d(32, 64, kernel_size=(3, 3), stride=(2, 2), padding=(1, 1), bias=False)
        (bn): BatchNorm2d(64, eps=1e-05, momentum=0.1, affine=True, track_running_stats=True)
      )
    )
    (1): RepViTBlock(
      (token_mixer): Sequential(
        (0): RepVGGDW(
          (conv): Conv2d_BN(
            (c): Conv2d(64, 64, kernel_size=(3, 3), stride=(1, 1), padding=(1, 1), groups=64, bias=False)
            (bn): BatchNorm2d(64, eps=1e-05, momentum=0.1, affine=True, track_running_stats=True)
          )
          (conv1): Conv2d(64, 64, kernel_size=(1, 1), stride=(1, 1), groups=64)
          (bn): BatchNorm2d(64, eps=1e-05, momentum=0.1, affine=True, track_running_stats=True)
        )
        (1): SEModule(
          (fc1): Conv2d(64, 16, kernel_size=(1, 1), stride=(1, 1))
          (bn): Identity()
          (act): ReLU(inplace=True)
          (fc2): Conv2d(16, 64, kernel_size=(1, 1), stride=(1, 1))
          (gate): Sigmoid()
        )
      )
      (channel_mixer): Residual(
        (m): Sequential(
          (0): Conv2d_BN(
            (c): Conv2d(64, 128, kernel_size=(1, 1), stride=(1, 1), bias=False)
            (bn): BatchNorm2d(128, eps=1e-05, momentum=0.1, affine=True, track_running_stats=True)
          )
          (1): GELU(approximate='none')
          (2): Conv2d_BN(
            (c): Conv2d(128, 64, kernel_size=(1, 1), stride=(1, 1), bias=False)
            (bn): BatchNorm2d(64, eps=1e-05, momentum=0.1, affine=True, track_running_stats=True)
          )
        )
      )
    )
    (2): RepViTBlock(
      (token_mixer): Sequential(
        (0): RepVGGDW(
          (conv): Conv2d_BN(
            (c): Conv2d(64, 64, kernel_size=(3, 3), stride=(1, 1), padding=(1, 1), groups=64, bias=False)
            (bn): BatchNorm2d(64, eps=1e-05, momentum=0.1, affine=True, track_running_stats=True)
          )
          (conv1): Conv2d(64, 64, kernel_size=(1, 1), stride=(1, 1), groups=64)
          (bn): BatchNorm2d(64, eps=1e-05, momentum=0.1, affine=True, track_running_stats=True)
        )
        (1): Identity()
      )
      (channel_mixer): Residual(
        (m): Sequential(
          (0): Conv2d_BN(
            (c): Conv2d(64, 128, kernel_size=(1, 1), stride=(1, 1), bias=False)
            (bn): BatchNorm2d(128, eps=1e-05, momentum=0.1, affine=True, track_running_stats=True)
          )
          (1): GELU(approximate='none')
          (2): Conv2d_BN(
            (c): Conv2d(128, 64, kernel_size=(1, 1), stride=(1, 1), bias=False)
            (bn): BatchNorm2d(64, eps=1e-05, momentum=0.1, affine=True, track_running_stats=True)
          )
        )
      )
    )
    (3): RepViTBlock(
      (token_mixer): Sequential(
        (0): RepVGGDW(
          (conv): Conv2d_BN(
            (c): Conv2d(64, 64, kernel_size=(3, 3), stride=(1, 1), padding=(1, 1), groups=64, bias=False)
            (bn): BatchNorm2d(64, eps=1e-05, momentum=0.1, affine=True, track_running_stats=True)
          )
          (conv1): Conv2d(64, 64, kernel_size=(1, 1), stride=(1, 1), groups=64)
          (bn): BatchNorm2d(64, eps=1e-05, momentum=0.1, affine=True, track_running_stats=True)
        )
        (1): SEModule(
          (fc1): Conv2d(64, 16, kernel_size=(1, 1), stride=(1, 1))
          (bn): Identity()
          (act): ReLU(inplace=True)
          (fc2): Conv2d(16, 64, kernel_size=(1, 1), stride=(1, 1))
          (gate): Sigmoid()
        )
      )
      (channel_mixer): Residual(
        (m): Sequential(
          (0): Conv2d_BN(
            (c): Conv2d(64, 128, kernel_size=(1, 1), stride=(1, 1), bias=False)
            (bn): BatchNorm2d(128, eps=1e-05, momentum=0.1, affine=True, track_running_stats=True)
          )
          (1): GELU(approximate='none')
          (2): Conv2d_BN(
            (c): Conv2d(128, 64, kernel_size=(1, 1), stride=(1, 1), bias=False)
            (bn): BatchNorm2d(64, eps=1e-05, momentum=0.1, affine=True, track_running_stats=True)
          )
        )
      )
    )
    (4-5): 2 x RepViTBlock(
      (token_mixer): Sequential(
        (0): RepVGGDW(
          (conv): Conv2d_BN(
            (c): Conv2d(64, 64, kernel_size=(3, 3), stride=(1, 1), padding=(1, 1), groups=64, bias=False)
            (bn): BatchNorm2d(64, eps=1e-05, momentum=0.1, affine=True, track_running_stats=True)
          )
          (conv1): Conv2d(64, 64, kernel_size=(1, 1), stride=(1, 1), groups=64)
          (bn): BatchNorm2d(64, eps=1e-05, momentum=0.1, affine=True, track_running_stats=True)
        )
        (1): Identity()
      )
      (channel_mixer): Residual(
        (m): Sequential(
          (0): Conv2d_BN(
            (c): Conv2d(64, 128, kernel_size=(1, 1), stride=(1, 1), bias=False)
            (bn): BatchNorm2d(128, eps=1e-05, momentum=0.1, affine=True, track_running_stats=True)
          )
          (1): GELU(approximate='none')
          (2): Conv2d_BN(
            (c): Conv2d(128, 64, kernel_size=(1, 1), stride=(1, 1), bias=False)
            (bn): BatchNorm2d(64, eps=1e-05, momentum=0.1, affine=True, track_running_stats=True)
          )
        )
      )
    )
    (6): RepViTBlock(
      (token_mixer): Sequential(
        (0): Conv2d_BN(
          (c): Conv2d(64, 64, kernel_size=(3, 3), stride=(2, 2), padding=(1, 1), groups=64, bias=False)
          (bn): BatchNorm2d(64, eps=1e-05, momentum=0.1, affine=True, track_running_stats=True)
        )
        (1): Identity()
        (2): Conv2d_BN(
          (c): Conv2d(64, 128, kernel_size=(1, 1), stride=(1, 1), bias=False)
          (bn): BatchNorm2d(128, eps=1e-05, momentum=0.1, affine=True, track_running_stats=True)
        )
      )
      (channel_mixer): Residual(
        (m): Sequential(
          (0): Conv2d_BN(
            (c): Conv2d(128, 256, kernel_size=(1, 1), stride=(1, 1), bias=False)
            (bn): BatchNorm2d(256, eps=1e-05, momentum=0.1, affine=True, track_running_stats=True)
          )
          (1): GELU(approximate='none')
          (2): Conv2d_BN(
            (c): Conv2d(256, 128, kernel_size=(1, 1), stride=(1, 1), bias=False)
            (bn): BatchNorm2d(128, eps=1e-05, momentum=0.1, affine=True, track_running_stats=True)
          )
        )
      )
    )
    (7): RepViTBlock(
      (token_mixer): Sequential(
        (0): RepVGGDW(
          (conv): Conv2d_BN(
            (c): Conv2d(128, 128, kernel_size=(3, 3), stride=(1, 1), padding=(1, 1), groups=128, bias=False)
            (bn): BatchNorm2d(128, eps=1e-05, momentum=0.1, affine=True, track_running_stats=True)
          )
          (conv1): Conv2d(128, 128, kernel_size=(1, 1), stride=(1, 1), groups=128)
          (bn): BatchNorm2d(128, eps=1e-05, momentum=0.1, affine=True, track_running_stats=True)
        )
        (1): SEModule(
          (fc1): Conv2d(128, 32, kernel_size=(1, 1), stride=(1, 1))
          (bn): Identity()
          (act): ReLU(inplace=True)
          (fc2): Conv2d(32, 128, kernel_size=(1, 1), stride=(1, 1))
          (gate): Sigmoid()
        )
      )
      (channel_mixer): Residual(
        (m): Sequential(
          (0): Conv2d_BN(
            (c): Conv2d(128, 256, kernel_size=(1, 1), stride=(1, 1), bias=False)
            (bn): BatchNorm2d(256, eps=1e-05, momentum=0.1, affine=True, track_running_stats=True)
          )
          (1): GELU(approximate='none')
          (2): Conv2d_BN(
            (c): Conv2d(256, 128, kernel_size=(1, 1), stride=(1, 1), bias=False)
            (bn): BatchNorm2d(128, eps=1e-05, momentum=0.1, affine=True, track_running_stats=True)
          )
        )
      )
    )
    (8): RepViTBlock(
      (token_mixer): Sequential(
        (0): RepVGGDW(
          (conv): Conv2d_BN(
            (c): Conv2d(128, 128, kernel_size=(3, 3), stride=(1, 1), padding=(1, 1), groups=128, bias=False)
            (bn): BatchNorm2d(128, eps=1e-05, momentum=0.1, affine=True, track_running_stats=True)
          )
          (conv1): Conv2d(128, 128, kernel_size=(1, 1), stride=(1, 1), groups=128)
          (bn): BatchNorm2d(128, eps=1e-05, momentum=0.1, affine=True, track_running_stats=True)
        )
        (1): Identity()
      )
      (channel_mixer): Residual(
        (m): Sequential(
          (0): Conv2d_BN(
            (c): Conv2d(128, 256, kernel_size=(1, 1), stride=(1, 1), bias=False)
            (bn): BatchNorm2d(256, eps=1e-05, momentum=0.1, affine=True, track_running_stats=True)
          )
          (1): GELU(approximate='none')
          (2): Conv2d_BN(
            (c): Conv2d(256, 128, kernel_size=(1, 1), stride=(1, 1), bias=False)
            (bn): BatchNorm2d(128, eps=1e-05, momentum=0.1, affine=True, track_running_stats=True)
          )
        )
      )
    )
    (9): RepViTBlock(
      (token_mixer): Sequential(
        (0): RepVGGDW(
          (conv): Conv2d_BN(
            (c): Conv2d(128, 128, kernel_size=(3, 3), stride=(1, 1), padding=(1, 1), groups=128, bias=False)
            (bn): BatchNorm2d(128, eps=1e-05, momentum=0.1, affine=True, track_running_stats=True)
          )
          (conv1): Conv2d(128, 128, kernel_size=(1, 1), stride=(1, 1), groups=128)
          (bn): BatchNorm2d(128, eps=1e-05, momentum=0.1, affine=True, track_running_stats=True)
        )
        (1): SEModule(
          (fc1): Conv2d(128, 32, kernel_size=(1, 1), stride=(1, 1))
          (bn): Identity()
          (act): ReLU(inplace=True)
          (fc2): Conv2d(32, 128, kernel_size=(1, 1), stride=(1, 1))
          (gate): Sigmoid()
        )
      )
      (channel_mixer): Residual(
        (m): Sequential(
          (0): Conv2d_BN(
            (c): Conv2d(128, 256, kernel_size=(1, 1), stride=(1, 1), bias=False)
            (bn): BatchNorm2d(256, eps=1e-05, momentum=0.1, affine=True, track_running_stats=True)
          )
          (1): GELU(approximate='none')
          (2): Conv2d_BN(
            (c): Conv2d(256, 128, kernel_size=(1, 1), stride=(1, 1), bias=False)
            (bn): BatchNorm2d(128, eps=1e-05, momentum=0.1, affine=True, track_running_stats=True)
          )
        )
      )
    )
    (10-11): 2 x RepViTBlock(
      (token_mixer): Sequential(
        (0): RepVGGDW(
          (conv): Conv2d_BN(
            (c): Conv2d(128, 128, kernel_size=(3, 3), stride=(1, 1), padding=(1, 1), groups=128, bias=False)
            (bn): BatchNorm2d(128, eps=1e-05, momentum=0.1, affine=True, track_running_stats=True)
          )
          (conv1): Conv2d(128, 128, kernel_size=(1, 1), stride=(1, 1), groups=128)
          (bn): BatchNorm2d(128, eps=1e-05, momentum=0.1, affine=True, track_running_stats=True)
        )
        (1): Identity()
      )
      (channel_mixer): Residual(
        (m): Sequential(
          (0): Conv2d_BN(
            (c): Conv2d(128, 256, kernel_size=(1, 1), stride=(1, 1), bias=False)
            (bn): BatchNorm2d(256, eps=1e-05, momentum=0.1, affine=True, track_running_stats=True)
          )
          (1): GELU(approximate='none')
          (2): Conv2d_BN(
            (c): Conv2d(256, 128, kernel_size=(1, 1), stride=(1, 1), bias=False)
            (bn): BatchNorm2d(128, eps=1e-05, momentum=0.1, affine=True, track_running_stats=True)
          )
        )
      )
    )
    (12): RepViTBlock(
      (token_mixer): Sequential(
        (0): Conv2d_BN(
          (c): Conv2d(128, 128, kernel_size=(3, 3), stride=(2, 2), padding=(1, 1), groups=128, bias=False)
          (bn): BatchNorm2d(128, eps=1e-05, momentum=0.1, affine=True, track_running_stats=True)
        )
        (1): Identity()
        (2): Conv2d_BN(
          (c): Conv2d(128, 256, kernel_size=(1, 1), stride=(1, 1), bias=False)
          (bn): BatchNorm2d(256, eps=1e-05, momentum=0.1, affine=True, track_running_stats=True)
        )
      )
      (channel_mixer): Residual(
        (m): Sequential(
          (0): Conv2d_BN(
            (c): Conv2d(256, 512, kernel_size=(1, 1), stride=(1, 1), bias=False)
            (bn): BatchNorm2d(512, eps=1e-05, momentum=0.1, affine=True, track_running_stats=True)
          )
          (1): GELU(approximate='none')
          (2): Conv2d_BN(
            (c): Conv2d(512, 256, kernel_size=(1, 1), stride=(1, 1), bias=False)
            (bn): BatchNorm2d(256, eps=1e-05, momentum=0.1, affine=True, track_running_stats=True)
          )
        )
      )
    )
    (13): RepViTBlock(
      (token_mixer): Sequential(
        (0): RepVGGDW(
          (conv): Conv2d_BN(
            (c): Conv2d(256, 256, kernel_size=(3, 3), stride=(1, 1), padding=(1, 1), groups=256, bias=False)
            (bn): BatchNorm2d(256, eps=1e-05, momentum=0.1, affine=True, track_running_stats=True)
          )
          (conv1): Conv2d(256, 256, kernel_size=(1, 1), stride=(1, 1), groups=256)
          (bn): BatchNorm2d(256, eps=1e-05, momentum=0.1, affine=True, track_running_stats=True)
        )
        (1): SEModule(
          (fc1): Conv2d(256, 64, kernel_size=(1, 1), stride=(1, 1))
          (bn): Identity()
          (act): ReLU(inplace=True)
          (fc2): Conv2d(64, 256, kernel_size=(1, 1), stride=(1, 1))
          (gate): Sigmoid()
        )
      )
      (channel_mixer): Residual(
        (m): Sequential(
          (0): Conv2d_BN(
            (c): Conv2d(256, 512, kernel_size=(1, 1), stride=(1, 1), bias=False)
            (bn): BatchNorm2d(512, eps=1e-05, momentum=0.1, affine=True, track_running_stats=True)
          )
          (1): GELU(approximate='none')
          (2): Conv2d_BN(
            (c): Conv2d(512, 256, kernel_size=(1, 1), stride=(1, 1), bias=False)
            (bn): BatchNorm2d(256, eps=1e-05, momentum=0.1, affine=True, track_running_stats=True)
          )
        )
      )
    )
    (14): RepViTBlock(
      (token_mixer): Sequential(
        (0): RepVGGDW(
          (conv): Conv2d_BN(
            (c): Conv2d(256, 256, kernel_size=(3, 3), stride=(1, 1), padding=(1, 1), groups=256, bias=False)
            (bn): BatchNorm2d(256, eps=1e-05, momentum=0.1, affine=True, track_running_stats=True)
          )
          (conv1): Conv2d(256, 256, kernel_size=(1, 1), stride=(1, 1), groups=256)
          (bn): BatchNorm2d(256, eps=1e-05, momentum=0.1, affine=True, track_running_stats=True)
        )
        (1): Identity()
      )
      (channel_mixer): Residual(
        (m): Sequential(
          (0): Conv2d_BN(
            (c): Conv2d(256, 512, kernel_size=(1, 1), stride=(1, 1), bias=False)
            (bn): BatchNorm2d(512, eps=1e-05, momentum=0.1, affine=True, track_running_stats=True)
          )
          (1): GELU(approximate='none')
          (2): Conv2d_BN(
            (c): Conv2d(512, 256, kernel_size=(1, 1), stride=(1, 1), bias=False)
            (bn): BatchNorm2d(256, eps=1e-05, momentum=0.1, affine=True, track_running_stats=True)
          )
        )
      )
    )
    (15): RepViTBlock(
      (token_mixer): Sequential(
        (0): RepVGGDW(
          (conv): Conv2d_BN(
            (c): Conv2d(256, 256, kernel_size=(3, 3), stride=(1, 1), padding=(1, 1), groups=256, bias=False)
            (bn): BatchNorm2d(256, eps=1e-05, momentum=0.1, affine=True, track_running_stats=True)
          )
          (conv1): Conv2d(256, 256, kernel_size=(1, 1), stride=(1, 1), groups=256)
          (bn): BatchNorm2d(256, eps=1e-05, momentum=0.1, affine=True, track_running_stats=True)
        )
        (1): SEModule(
          (fc1): Conv2d(256, 64, kernel_size=(1, 1), stride=(1, 1))
          (bn): Identity()
          (act): ReLU(inplace=True)
          (fc2): Conv2d(64, 256, kernel_size=(1, 1), stride=(1, 1))
          (gate): Sigmoid()
        )
      )
      (channel_mixer): Residual(
        (m): Sequential(
          (0): Conv2d_BN(
            (c): Conv2d(256, 512, kernel_size=(1, 1), stride=(1, 1), bias=False)
            (bn): BatchNorm2d(512, eps=1e-05, momentum=0.1, affine=True, track_running_stats=True)
          )
          (1): GELU(approximate='none')
          (2): Conv2d_BN(
            (c): Conv2d(512, 256, kernel_size=(1, 1), stride=(1, 1), bias=False)
            (bn): BatchNorm2d(256, eps=1e-05, momentum=0.1, affine=True, track_running_stats=True)
          )
        )
      )
    )
    (16): RepViTBlock(
      (token_mixer): Sequential(
        (0): RepVGGDW(
          (conv): Conv2d_BN(
            (c): Conv2d(256, 256, kernel_size=(3, 3), stride=(1, 1), padding=(1, 1), groups=256, bias=False)
            (bn): BatchNorm2d(256, eps=1e-05, momentum=0.1, affine=True, track_running_stats=True)
          )
          (conv1): Conv2d(256, 256, kernel_size=(1, 1), stride=(1, 1), groups=256)
          (bn): BatchNorm2d(256, eps=1e-05, momentum=0.1, affine=True, track_running_stats=True)
        )
        (1): Identity()
      )
      (channel_mixer): Residual(
        (m): Sequential(
          (0): Conv2d_BN(
            (c): Conv2d(256, 512, kernel_size=(1, 1), stride=(1, 1), bias=False)
            (bn): BatchNorm2d(512, eps=1e-05, momentum=0.1, affine=True, track_running_stats=True)
          )
          (1): GELU(approximate='none')
          (2): Conv2d_BN(
            (c): Conv2d(512, 256, kernel_size=(1, 1), stride=(1, 1), bias=False)
            (bn): BatchNorm2d(256, eps=1e-05, momentum=0.1, affine=True, track_running_stats=True)
          )
        )
      )
    )
    (17): RepViTBlock(
      (token_mixer): Sequential(
        (0): RepVGGDW(
          (conv): Conv2d_BN(
            (c): Conv2d(256, 256, kernel_size=(3, 3), stride=(1, 1), padding=(1, 1), groups=256, bias=False)
            (bn): BatchNorm2d(256, eps=1e-05, momentum=0.1, affine=True, track_running_stats=True)
          )
          (conv1): Conv2d(256, 256, kernel_size=(1, 1), stride=(1, 1), groups=256)
          (bn): BatchNorm2d(256, eps=1e-05, momentum=0.1, affine=True, track_running_stats=True)
        )
        (1): SEModule(
          (fc1): Conv2d(256, 64, kernel_size=(1, 1), stride=(1, 1))
          (bn): Identity()
          (act): ReLU(inplace=True)
          (fc2): Conv2d(64, 256, kernel_size=(1, 1), stride=(1, 1))
          (gate): Sigmoid()
        )
      )
      (channel_mixer): Residual(
        (m): Sequential(
          (0): Conv2d_BN(
            (c): Conv2d(256, 512, kernel_size=(1, 1), stride=(1, 1), bias=False)
            (bn): BatchNorm2d(512, eps=1e-05, momentum=0.1, affine=True, track_running_stats=True)
          )
          (1): GELU(approximate='none')
          (2): Conv2d_BN(
            (c): Conv2d(512, 256, kernel_size=(1, 1), stride=(1, 1), bias=False)
            (bn): BatchNorm2d(256, eps=1e-05, momentum=0.1, affine=True, track_running_stats=True)
          )
        )
      )
    )
    (18): RepViTBlock(
      (token_mixer): Sequential(
        (0): RepVGGDW(
          (conv): Conv2d_BN(
            (c): Conv2d(256, 256, kernel_size=(3, 3), stride=(1, 1), padding=(1, 1), groups=256, bias=False)
            (bn): BatchNorm2d(256, eps=1e-05, momentum=0.1, affine=True, track_running_stats=True)
          )
          (conv1): Conv2d(256, 256, kernel_size=(1, 1), stride=(1, 1), groups=256)
          (bn): BatchNorm2d(256, eps=1e-05, momentum=0.1, affine=True, track_running_stats=True)
        )
        (1): Identity()
      )
      (channel_mixer): Residual(
        (m): Sequential(
          (0): Conv2d_BN(
            (c): Conv2d(256, 512, kernel_size=(1, 1), stride=(1, 1), bias=False)
            (bn): BatchNorm2d(512, eps=1e-05, momentum=0.1, affine=True, track_running_stats=True)
          )
          (1): GELU(approximate='none')
          (2): Conv2d_BN(
            (c): Conv2d(512, 256, kernel_size=(1, 1), stride=(1, 1), bias=False)
            (bn): BatchNorm2d(256, eps=1e-05, momentum=0.1, affine=True, track_running_stats=True)
          )
        )
      )
    )
    (19): RepViTBlock(
      (token_mixer): Sequential(
        (0): RepVGGDW(
          (conv): Conv2d_BN(
            (c): Conv2d(256, 256, kernel_size=(3, 3), stride=(1, 1), padding=(1, 1), groups=256, bias=False)
            (bn): BatchNorm2d(256, eps=1e-05, momentum=0.1, affine=True, track_running_stats=True)
          )
          (conv1): Conv2d(256, 256, kernel_size=(1, 1), stride=(1, 1), groups=256)
          (bn): BatchNorm2d(256, eps=1e-05, momentum=0.1, affine=True, track_running_stats=True)
        )
        (1): SEModule(
          (fc1): Conv2d(256, 64, kernel_size=(1, 1), stride=(1, 1))
          (bn): Identity()
          (act): ReLU(inplace=True)
          (fc2): Conv2d(64, 256, kernel_size=(1, 1), stride=(1, 1))
          (gate): Sigmoid()
        )
      )
      (channel_mixer): Residual(
        (m): Sequential(
          (0): Conv2d_BN(
            (c): Conv2d(256, 512, kernel_size=(1, 1), stride=(1, 1), bias=False)
            (bn): BatchNorm2d(512, eps=1e-05, momentum=0.1, affine=True, track_running_stats=True)
          )
          (1): GELU(approximate='none')
          (2): Conv2d_BN(
            (c): Conv2d(512, 256, kernel_size=(1, 1), stride=(1, 1), bias=False)
            (bn): BatchNorm2d(256, eps=1e-05, momentum=0.1, affine=True, track_running_stats=True)
          )
        )
      )
    )
    (20): RepViTBlock(
      (token_mixer): Sequential(
        (0): RepVGGDW(
          (conv): Conv2d_BN(
            (c): Conv2d(256, 256, kernel_size=(3, 3), stride=(1, 1), padding=(1, 1), groups=256, bias=False)
            (bn): BatchNorm2d(256, eps=1e-05, momentum=0.1, affine=True, track_running_stats=True)
          )
          (conv1): Conv2d(256, 256, kernel_size=(1, 1), stride=(1, 1), groups=256)
          (bn): BatchNorm2d(256, eps=1e-05, momentum=0.1, affine=True, track_running_stats=True)
        )
        (1): Identity()
      )
      (channel_mixer): Residual(
        (m): Sequential(
          (0): Conv2d_BN(
            (c): Conv2d(256, 512, kernel_size=(1, 1), stride=(1, 1), bias=False)
            (bn): BatchNorm2d(512, eps=1e-05, momentum=0.1, affine=True, track_running_stats=True)
          )
          (1): GELU(approximate='none')
          (2): Conv2d_BN(
            (c): Conv2d(512, 256, kernel_size=(1, 1), stride=(1, 1), bias=False)
            (bn): BatchNorm2d(256, eps=1e-05, momentum=0.1, affine=True, track_running_stats=True)
          )
        )
      )
    )
    (21): RepViTBlock(
      (token_mixer): Sequential(
        (0): RepVGGDW(
          (conv): Conv2d_BN(
            (c): Conv2d(256, 256, kernel_size=(3, 3), stride=(1, 1), padding=(1, 1), groups=256, bias=False)
            (bn): BatchNorm2d(256, eps=1e-05, momentum=0.1, affine=True, track_running_stats=True)
          )
          (conv1): Conv2d(256, 256, kernel_size=(1, 1), stride=(1, 1), groups=256)
          (bn): BatchNorm2d(256, eps=1e-05, momentum=0.1, affine=True, track_running_stats=True)
        )
        (1): SEModule(
          (fc1): Conv2d(256, 64, kernel_size=(1, 1), stride=(1, 1))
          (bn): Identity()
          (act): ReLU(inplace=True)
          (fc2): Conv2d(64, 256, kernel_size=(1, 1), stride=(1, 1))
          (gate): Sigmoid()
        )
      )
      (channel_mixer): Residual(
        (m): Sequential(
          (0): Conv2d_BN(
            (c): Conv2d(256, 512, kernel_size=(1, 1), stride=(1, 1), bias=False)
            (bn): BatchNorm2d(512, eps=1e-05, momentum=0.1, affine=True, track_running_stats=True)
          )
          (1): GELU(approximate='none')
          (2): Conv2d_BN(
            (c): Conv2d(512, 256, kernel_size=(1, 1), stride=(1, 1), bias=False)
            (bn): BatchNorm2d(256, eps=1e-05, momentum=0.1, affine=True, track_running_stats=True)
          )
        )
      )
    )
    (22): RepViTBlock(
      (token_mixer): Sequential(
        (0): RepVGGDW(
          (conv): Conv2d_BN(
            (c): Conv2d(256, 256, kernel_size=(3, 3), stride=(1, 1), padding=(1, 1), groups=256, bias=False)
            (bn): BatchNorm2d(256, eps=1e-05, momentum=0.1, affine=True, track_running_stats=True)
          )
          (conv1): Conv2d(256, 256, kernel_size=(1, 1), stride=(1, 1), groups=256)
          (bn): BatchNorm2d(256, eps=1e-05, momentum=0.1, affine=True, track_running_stats=True)
        )
        (1): Identity()
      )
      (channel_mixer): Residual(
        (m): Sequential(
          (0): Conv2d_BN(
            (c): Conv2d(256, 512, kernel_size=(1, 1), stride=(1, 1), bias=False)
            (bn): BatchNorm2d(512, eps=1e-05, momentum=0.1, affine=True, track_running_stats=True)
          )
          (1): GELU(approximate='none')
          (2): Conv2d_BN(
            (c): Conv2d(512, 256, kernel_size=(1, 1), stride=(1, 1), bias=False)
            (bn): BatchNorm2d(256, eps=1e-05, momentum=0.1, affine=True, track_running_stats=True)
          )
        )
      )
    )
    (23): RepViTBlock(
      (token_mixer): Sequential(
        (0): RepVGGDW(
          (conv): Conv2d_BN(
            (c): Conv2d(256, 256, kernel_size=(3, 3), stride=(1, 1), padding=(1, 1), groups=256, bias=False)
            (bn): BatchNorm2d(256, eps=1e-05, momentum=0.1, affine=True, track_running_stats=True)
          )
          (conv1): Conv2d(256, 256, kernel_size=(1, 1), stride=(1, 1), groups=256)
          (bn): BatchNorm2d(256, eps=1e-05, momentum=0.1, affine=True, track_running_stats=True)
        )
        (1): SEModule(
          (fc1): Conv2d(256, 64, kernel_size=(1, 1), stride=(1, 1))
          (bn): Identity()
          (act): ReLU(inplace=True)
          (fc2): Conv2d(64, 256, kernel_size=(1, 1), stride=(1, 1))
          (gate): Sigmoid()
        )
      )
      (channel_mixer): Residual(
        (m): Sequential(
          (0): Conv2d_BN(
            (c): Conv2d(256, 512, kernel_size=(1, 1), stride=(1, 1), bias=False)
            (bn): BatchNorm2d(512, eps=1e-05, momentum=0.1, affine=True, track_running_stats=True)
          )
          (1): GELU(approximate='none')
          (2): Conv2d_BN(
            (c): Conv2d(512, 256, kernel_size=(1, 1), stride=(1, 1), bias=False)
            (bn): BatchNorm2d(256, eps=1e-05, momentum=0.1, affine=True, track_running_stats=True)
          )
        )
      )
    )
    (24): RepViTBlock(
      (token_mixer): Sequential(
        (0): RepVGGDW(
          (conv): Conv2d_BN(
            (c): Conv2d(256, 256, kernel_size=(3, 3), stride=(1, 1), padding=(1, 1), groups=256, bias=False)
            (bn): BatchNorm2d(256, eps=1e-05, momentum=0.1, affine=True, track_running_stats=True)
          )
          (conv1): Conv2d(256, 256, kernel_size=(1, 1), stride=(1, 1), groups=256)
          (bn): BatchNorm2d(256, eps=1e-05, momentum=0.1, affine=True, track_running_stats=True)
        )
        (1): Identity()
      )
      (channel_mixer): Residual(
        (m): Sequential(
          (0): Conv2d_BN(
            (c): Conv2d(256, 512, kernel_size=(1, 1), stride=(1, 1), bias=False)
            (bn): BatchNorm2d(512, eps=1e-05, momentum=0.1, affine=True, track_running_stats=True)
          )
          (1): GELU(approximate='none')
          (2): Conv2d_BN(
            (c): Conv2d(512, 256, kernel_size=(1, 1), stride=(1, 1), bias=False)
            (bn): BatchNorm2d(256, eps=1e-05, momentum=0.1, affine=True, track_running_stats=True)
          )
        )
      )
    )
    (25): RepViTBlock(
      (token_mixer): Sequential(
        (0): RepVGGDW(
          (conv): Conv2d_BN(
            (c): Conv2d(256, 256, kernel_size=(3, 3), stride=(1, 1), padding=(1, 1), groups=256, bias=False)
            (bn): BatchNorm2d(256, eps=1e-05, momentum=0.1, affine=True, track_running_stats=True)
          )
          (conv1): Conv2d(256, 256, kernel_size=(1, 1), stride=(1, 1), groups=256)
          (bn): BatchNorm2d(256, eps=1e-05, momentum=0.1, affine=True, track_running_stats=True)
        )
        (1): SEModule(
          (fc1): Conv2d(256, 64, kernel_size=(1, 1), stride=(1, 1))
          (bn): Identity()
          (act): ReLU(inplace=True)
          (fc2): Conv2d(64, 256, kernel_size=(1, 1), stride=(1, 1))
          (gate): Sigmoid()
        )
      )
      (channel_mixer): Residual(
        (m): Sequential(
          (0): Conv2d_BN(
            (c): Conv2d(256, 512, kernel_size=(1, 1), stride=(1, 1), bias=False)
            (bn): BatchNorm2d(512, eps=1e-05, momentum=0.1, affine=True, track_running_stats=True)
          )
          (1): GELU(approximate='none')
          (2): Conv2d_BN(
            (c): Conv2d(512, 256, kernel_size=(1, 1), stride=(1, 1), bias=False)
            (bn): BatchNorm2d(256, eps=1e-05, momentum=0.1, affine=True, track_running_stats=True)
          )
        )
      )
    )
    (26): RepViTBlock(
      (token_mixer): Sequential(
        (0): RepVGGDW(
          (conv): Conv2d_BN(
            (c): Conv2d(256, 256, kernel_size=(3, 3), stride=(1, 1), padding=(1, 1), groups=256, bias=False)
            (bn): BatchNorm2d(256, eps=1e-05, momentum=0.1, affine=True, track_running_stats=True)
          )
          (conv1): Conv2d(256, 256, kernel_size=(1, 1), stride=(1, 1), groups=256)
          (bn): BatchNorm2d(256, eps=1e-05, momentum=0.1, affine=True, track_running_stats=True)
        )
        (1): Identity()
      )
      (channel_mixer): Residual(
        (m): Sequential(
          (0): Conv2d_BN(
            (c): Conv2d(256, 512, kernel_size=(1, 1), stride=(1, 1), bias=False)
            (bn): BatchNorm2d(512, eps=1e-05, momentum=0.1, affine=True, track_running_stats=True)
          )
          (1): GELU(approximate='none')
          (2): Conv2d_BN(
            (c): Conv2d(512, 256, kernel_size=(1, 1), stride=(1, 1), bias=False)
            (bn): BatchNorm2d(256, eps=1e-05, momentum=0.1, affine=True, track_running_stats=True)
          )
        )
      )
    )
    (27): RepViTBlock(
      (token_mixer): Sequential(
        (0): RepVGGDW(
          (conv): Conv2d_BN(
            (c): Conv2d(256, 256, kernel_size=(3, 3), stride=(1, 1), padding=(1, 1), groups=256, bias=False)
            (bn): BatchNorm2d(256, eps=1e-05, momentum=0.1, affine=True, track_running_stats=True)
          )
          (conv1): Conv2d(256, 256, kernel_size=(1, 1), stride=(1, 1), groups=256)
          (bn): BatchNorm2d(256, eps=1e-05, momentum=0.1, affine=True, track_running_stats=True)
        )
        (1): SEModule(
          (fc1): Conv2d(256, 64, kernel_size=(1, 1), stride=(1, 1))
          (bn): Identity()
          (act): ReLU(inplace=True)
          (fc2): Conv2d(64, 256, kernel_size=(1, 1), stride=(1, 1))
          (gate): Sigmoid()
        )
      )
      (channel_mixer): Residual(
        (m): Sequential(
          (0): Conv2d_BN(
            (c): Conv2d(256, 512, kernel_size=(1, 1), stride=(1, 1), bias=False)
            (bn): BatchNorm2d(512, eps=1e-05, momentum=0.1, affine=True, track_running_stats=True)
          )
          (1): GELU(approximate='none')
          (2): Conv2d_BN(
            (c): Conv2d(512, 256, kernel_size=(1, 1), stride=(1, 1), bias=False)
            (bn): BatchNorm2d(256, eps=1e-05, momentum=0.1, affine=True, track_running_stats=True)
          )
        )
      )
    )
    (28): RepViTBlock(
      (token_mixer): Sequential(
        (0): RepVGGDW(
          (conv): Conv2d_BN(
            (c): Conv2d(256, 256, kernel_size=(3, 3), stride=(1, 1), padding=(1, 1), groups=256, bias=False)
            (bn): BatchNorm2d(256, eps=1e-05, momentum=0.1, affine=True, track_running_stats=True)
          )
          (conv1): Conv2d(256, 256, kernel_size=(1, 1), stride=(1, 1), groups=256)
          (bn): BatchNorm2d(256, eps=1e-05, momentum=0.1, affine=True, track_running_stats=True)
        )
        (1): Identity()
      )
      (channel_mixer): Residual(
        (m): Sequential(
          (0): Conv2d_BN(
            (c): Conv2d(256, 512, kernel_size=(1, 1), stride=(1, 1), bias=False)
            (bn): BatchNorm2d(512, eps=1e-05, momentum=0.1, affine=True, track_running_stats=True)
          )
          (1): GELU(approximate='none')
          (2): Conv2d_BN(
            (c): Conv2d(512, 256, kernel_size=(1, 1), stride=(1, 1), bias=False)
            (bn): BatchNorm2d(256, eps=1e-05, momentum=0.1, affine=True, track_running_stats=True)
          )
        )
      )
    )
    (29): RepViTBlock(
      (token_mixer): Sequential(
        (0): RepVGGDW(
          (conv): Conv2d_BN(
            (c): Conv2d(256, 256, kernel_size=(3, 3), stride=(1, 1), padding=(1, 1), groups=256, bias=False)
            (bn): BatchNorm2d(256, eps=1e-05, momentum=0.1, affine=True, track_running_stats=True)
          )
          (conv1): Conv2d(256, 256, kernel_size=(1, 1), stride=(1, 1), groups=256)
          (bn): BatchNorm2d(256, eps=1e-05, momentum=0.1, affine=True, track_running_stats=True)
        )
        (1): SEModule(
          (fc1): Conv2d(256, 64, kernel_size=(1, 1), stride=(1, 1))
          (bn): Identity()
          (act): ReLU(inplace=True)
          (fc2): Conv2d(64, 256, kernel_size=(1, 1), stride=(1, 1))
          (gate): Sigmoid()
        )
      )
      (channel_mixer): Residual(
        (m): Sequential(
          (0): Conv2d_BN(
            (c): Conv2d(256, 512, kernel_size=(1, 1), stride=(1, 1), bias=False)
            (bn): BatchNorm2d(512, eps=1e-05, momentum=0.1, affine=True, track_running_stats=True)
          )
          (1): GELU(approximate='none')
          (2): Conv2d_BN(
            (c): Conv2d(512, 256, kernel_size=(1, 1), stride=(1, 1), bias=False)
            (bn): BatchNorm2d(256, eps=1e-05, momentum=0.1, affine=True, track_running_stats=True)
          )
        )
      )
    )
    (30): RepViTBlock(
      (token_mixer): Sequential(
        (0): RepVGGDW(
          (conv): Conv2d_BN(
            (c): Conv2d(256, 256, kernel_size=(3, 3), stride=(1, 1), padding=(1, 1), groups=256, bias=False)
            (bn): BatchNorm2d(256, eps=1e-05, momentum=0.1, affine=True, track_running_stats=True)
          )
          (conv1): Conv2d(256, 256, kernel_size=(1, 1), stride=(1, 1), groups=256)
          (bn): BatchNorm2d(256, eps=1e-05, momentum=0.1, affine=True, track_running_stats=True)
        )
        (1): Identity()
      )
      (channel_mixer): Residual(
        (m): Sequential(
          (0): Conv2d_BN(
            (c): Conv2d(256, 512, kernel_size=(1, 1), stride=(1, 1), bias=False)
            (bn): BatchNorm2d(512, eps=1e-05, momentum=0.1, affine=True, track_running_stats=True)
          )
          (1): GELU(approximate='none')
          (2): Conv2d_BN(
            (c): Conv2d(512, 256, kernel_size=(1, 1), stride=(1, 1), bias=False)
            (bn): BatchNorm2d(256, eps=1e-05, momentum=0.1, affine=True, track_running_stats=True)
          )
        )
      )
    )
    (31): RepViTBlock(
      (token_mixer): Sequential(
        (0): RepVGGDW(
          (conv): Conv2d_BN(
            (c): Conv2d(256, 256, kernel_size=(3, 3), stride=(1, 1), padding=(1, 1), groups=256, bias=False)
            (bn): BatchNorm2d(256, eps=1e-05, momentum=0.1, affine=True, track_running_stats=True)
          )
          (conv1): Conv2d(256, 256, kernel_size=(1, 1), stride=(1, 1), groups=256)
          (bn): BatchNorm2d(256, eps=1e-05, momentum=0.1, affine=True, track_running_stats=True)
        )
        (1): SEModule(
          (fc1): Conv2d(256, 64, kernel_size=(1, 1), stride=(1, 1))
          (bn): Identity()
          (act): ReLU(inplace=True)
          (fc2): Conv2d(64, 256, kernel_size=(1, 1), stride=(1, 1))
          (gate): Sigmoid()
        )
      )
      (channel_mixer): Residual(
        (m): Sequential(
          (0): Conv2d_BN(
            (c): Conv2d(256, 512, kernel_size=(1, 1), stride=(1, 1), bias=False)
            (bn): BatchNorm2d(512, eps=1e-05, momentum=0.1, affine=True, track_running_stats=True)
          )
          (1): GELU(approximate='none')
          (2): Conv2d_BN(
            (c): Conv2d(512, 256, kernel_size=(1, 1), stride=(1, 1), bias=False)
            (bn): BatchNorm2d(256, eps=1e-05, momentum=0.1, affine=True, track_running_stats=True)
          )
        )
      )
    )
    (32): RepViTBlock(
      (token_mixer): Sequential(
        (0): RepVGGDW(
          (conv): Conv2d_BN(
            (c): Conv2d(256, 256, kernel_size=(3, 3), stride=(1, 1), padding=(1, 1), groups=256, bias=False)
            (bn): BatchNorm2d(256, eps=1e-05, momentum=0.1, affine=True, track_running_stats=True)
          )
          (conv1): Conv2d(256, 256, kernel_size=(1, 1), stride=(1, 1), groups=256)
          (bn): BatchNorm2d(256, eps=1e-05, momentum=0.1, affine=True, track_running_stats=True)
        )
        (1): Identity()
      )
      (channel_mixer): Residual(
        (m): Sequential(
          (0): Conv2d_BN(
            (c): Conv2d(256, 512, kernel_size=(1, 1), stride=(1, 1), bias=False)
            (bn): BatchNorm2d(512, eps=1e-05, momentum=0.1, affine=True, track_running_stats=True)
          )
          (1): GELU(approximate='none')
          (2): Conv2d_BN(
            (c): Conv2d(512, 256, kernel_size=(1, 1), stride=(1, 1), bias=False)
            (bn): BatchNorm2d(256, eps=1e-05, momentum=0.1, affine=True, track_running_stats=True)
          )
        )
      )
    )
    (33): RepViTBlock(
      (token_mixer): Sequential(
        (0): RepVGGDW(
          (conv): Conv2d_BN(
            (c): Conv2d(256, 256, kernel_size=(3, 3), stride=(1, 1), padding=(1, 1), groups=256, bias=False)
            (bn): BatchNorm2d(256, eps=1e-05, momentum=0.1, affine=True, track_running_stats=True)
          )
          (conv1): Conv2d(256, 256, kernel_size=(1, 1), stride=(1, 1), groups=256)
          (bn): BatchNorm2d(256, eps=1e-05, momentum=0.1, affine=True, track_running_stats=True)
        )
        (1): SEModule(
          (fc1): Conv2d(256, 64, kernel_size=(1, 1), stride=(1, 1))
          (bn): Identity()
          (act): ReLU(inplace=True)
          (fc2): Conv2d(64, 256, kernel_size=(1, 1), stride=(1, 1))
          (gate): Sigmoid()
        )
      )
      (channel_mixer): Residual(
        (m): Sequential(
          (0): Conv2d_BN(
            (c): Conv2d(256, 512, kernel_size=(1, 1), stride=(1, 1), bias=False)
            (bn): BatchNorm2d(512, eps=1e-05, momentum=0.1, affine=True, track_running_stats=True)
          )
          (1): GELU(approximate='none')
          (2): Conv2d_BN(
            (c): Conv2d(512, 256, kernel_size=(1, 1), stride=(1, 1), bias=False)
            (bn): BatchNorm2d(256, eps=1e-05, momentum=0.1, affine=True, track_running_stats=True)
          )
        )
      )
    )
    (34): RepViTBlock(
      (token_mixer): Sequential(
        (0): RepVGGDW(
          (conv): Conv2d_BN(
            (c): Conv2d(256, 256, kernel_size=(3, 3), stride=(1, 1), padding=(1, 1), groups=256, bias=False)
            (bn): BatchNorm2d(256, eps=1e-05, momentum=0.1, affine=True, track_running_stats=True)
          )
          (conv1): Conv2d(256, 256, kernel_size=(1, 1), stride=(1, 1), groups=256)
          (bn): BatchNorm2d(256, eps=1e-05, momentum=0.1, affine=True, track_running_stats=True)
        )
        (1): Identity()
      )
      (channel_mixer): Residual(
        (m): Sequential(
          (0): Conv2d_BN(
            (c): Conv2d(256, 512, kernel_size=(1, 1), stride=(1, 1), bias=False)
            (bn): BatchNorm2d(512, eps=1e-05, momentum=0.1, affine=True, track_running_stats=True)
          )
          (1): GELU(approximate='none')
          (2): Conv2d_BN(
            (c): Conv2d(512, 256, kernel_size=(1, 1), stride=(1, 1), bias=False)
            (bn): BatchNorm2d(256, eps=1e-05, momentum=0.1, affine=True, track_running_stats=True)
          )
        )
      )
    )
    (35): RepViTBlock(
      (token_mixer): Sequential(
        (0): RepVGGDW(
          (conv): Conv2d_BN(
            (c): Conv2d(256, 256, kernel_size=(3, 3), stride=(1, 1), padding=(1, 1), groups=256, bias=False)
            (bn): BatchNorm2d(256, eps=1e-05, momentum=0.1, affine=True, track_running_stats=True)
          )
          (conv1): Conv2d(256, 256, kernel_size=(1, 1), stride=(1, 1), groups=256)
          (bn): BatchNorm2d(256, eps=1e-05, momentum=0.1, affine=True, track_running_stats=True)
        )
        (1): SEModule(
          (fc1): Conv2d(256, 64, kernel_size=(1, 1), stride=(1, 1))
          (bn): Identity()
          (act): ReLU(inplace=True)
          (fc2): Conv2d(64, 256, kernel_size=(1, 1), stride=(1, 1))
          (gate): Sigmoid()
        )
      )
      (channel_mixer): Residual(
        (m): Sequential(
          (0): Conv2d_BN(
            (c): Conv2d(256, 512, kernel_size=(1, 1), stride=(1, 1), bias=False)
            (bn): BatchNorm2d(512, eps=1e-05, momentum=0.1, affine=True, track_running_stats=True)
          )
          (1): GELU(approximate='none')
          (2): Conv2d_BN(
            (c): Conv2d(512, 256, kernel_size=(1, 1), stride=(1, 1), bias=False)
            (bn): BatchNorm2d(256, eps=1e-05, momentum=0.1, affine=True, track_running_stats=True)
          )
        )
      )
    )
    (36-37): 2 x RepViTBlock(
      (token_mixer): Sequential(
        (0): RepVGGDW(
          (conv): Conv2d_BN(
            (c): Conv2d(256, 256, kernel_size=(3, 3), stride=(1, 1), padding=(1, 1), groups=256, bias=False)
            (bn): BatchNorm2d(256, eps=1e-05, momentum=0.1, affine=True, track_running_stats=True)
          )
          (conv1): Conv2d(256, 256, kernel_size=(1, 1), stride=(1, 1), groups=256)
          (bn): BatchNorm2d(256, eps=1e-05, momentum=0.1, affine=True, track_running_stats=True)
        )
        (1): Identity()
      )
      (channel_mixer): Residual(
        (m): Sequential(
          (0): Conv2d_BN(
            (c): Conv2d(256, 512, kernel_size=(1, 1), stride=(1, 1), bias=False)
            (bn): BatchNorm2d(512, eps=1e-05, momentum=0.1, affine=True, track_running_stats=True)
          )
          (1): GELU(approximate='none')
          (2): Conv2d_BN(
            (c): Conv2d(512, 256, kernel_size=(1, 1), stride=(1, 1), bias=False)
            (bn): BatchNorm2d(256, eps=1e-05, momentum=0.1, affine=True, track_running_stats=True)
          )
        )
      )
    )
    (38): RepViTBlock(
      (token_mixer): Sequential(
        (0): Conv2d_BN(
          (c): Conv2d(256, 256, kernel_size=(3, 3), stride=(2, 2), padding=(1, 1), groups=256, bias=False)
          (bn): BatchNorm2d(256, eps=1e-05, momentum=0.1, affine=True, track_running_stats=True)
        )
        (1): Identity()
        (2): Conv2d_BN(
          (c): Conv2d(256, 512, kernel_size=(1, 1), stride=(1, 1), bias=False)
          (bn): BatchNorm2d(512, eps=1e-05, momentum=0.1, affine=True, track_running_stats=True)
        )
      )
      (channel_mixer): Residual(
        (m): Sequential(
          (0): Conv2d_BN(
            (c): Conv2d(512, 1024, kernel_size=(1, 1), stride=(1, 1), bias=False)
            (bn): BatchNorm2d(1024, eps=1e-05, momentum=0.1, affine=True, track_running_stats=True)
          )
          (1): GELU(approximate='none')
          (2): Conv2d_BN(
            (c): Conv2d(1024, 512, kernel_size=(1, 1), stride=(1, 1), bias=False)
            (bn): BatchNorm2d(512, eps=1e-05, momentum=0.1, affine=True, track_running_stats=True)
          )
        )
      )
    )
    (39): RepViTBlock(
      (token_mixer): Sequential(
        (0): RepVGGDW(
          (conv): Conv2d_BN(
            (c): Conv2d(512, 512, kernel_size=(3, 3), stride=(1, 1), padding=(1, 1), groups=512, bias=False)
            (bn): BatchNorm2d(512, eps=1e-05, momentum=0.1, affine=True, track_running_stats=True)
          )
          (conv1): Conv2d(512, 512, kernel_size=(1, 1), stride=(1, 1), groups=512)
          (bn): BatchNorm2d(512, eps=1e-05, momentum=0.1, affine=True, track_running_stats=True)
        )
        (1): SEModule(
          (fc1): Conv2d(512, 128, kernel_size=(1, 1), stride=(1, 1))
          (bn): Identity()
          (act): ReLU(inplace=True)
          (fc2): Conv2d(128, 512, kernel_size=(1, 1), stride=(1, 1))
          (gate): Sigmoid()
        )
      )
      (channel_mixer): Residual(
        (m): Sequential(
          (0): Conv2d_BN(
            (c): Conv2d(512, 1024, kernel_size=(1, 1), stride=(1, 1), bias=False)
            (bn): BatchNorm2d(1024, eps=1e-05, momentum=0.1, affine=True, track_running_stats=True)
          )
          (1): GELU(approximate='none')
          (2): Conv2d_BN(
            (c): Conv2d(1024, 512, kernel_size=(1, 1), stride=(1, 1), bias=False)
            (bn): BatchNorm2d(512, eps=1e-05, momentum=0.1, affine=True, track_running_stats=True)
          )
        )
      )
    )
    (40): RepViTBlock(
      (token_mixer): Sequential(
        (0): RepVGGDW(
          (conv): Conv2d_BN(
            (c): Conv2d(512, 512, kernel_size=(3, 3), stride=(1, 1), padding=(1, 1), groups=512, bias=False)
            (bn): BatchNorm2d(512, eps=1e-05, momentum=0.1, affine=True, track_running_stats=True)
          )
          (conv1): Conv2d(512, 512, kernel_size=(1, 1), stride=(1, 1), groups=512)
          (bn): BatchNorm2d(512, eps=1e-05, momentum=0.1, affine=True, track_running_stats=True)
        )
        (1): Identity()
      )
      (channel_mixer): Residual(
        (m): Sequential(
          (0): Conv2d_BN(
            (c): Conv2d(512, 1024, kernel_size=(1, 1), stride=(1, 1), bias=False)
            (bn): BatchNorm2d(1024, eps=1e-05, momentum=0.1, affine=True, track_running_stats=True)
          )
          (1): GELU(approximate='none')
          (2): Conv2d_BN(
            (c): Conv2d(1024, 512, kernel_size=(1, 1), stride=(1, 1), bias=False)
            (bn): BatchNorm2d(512, eps=1e-05, momentum=0.1, affine=True, track_running_stats=True)
          )
        )
      )
    )
    (41): RepViTBlock(
      (token_mixer): Sequential(
        (0): RepVGGDW(
          (conv): Conv2d_BN(
            (c): Conv2d(512, 512, kernel_size=(3, 3), stride=(1, 1), padding=(1, 1), groups=512, bias=False)
            (bn): BatchNorm2d(512, eps=1e-05, momentum=0.1, affine=True, track_running_stats=True)
          )
          (conv1): Conv2d(512, 512, kernel_size=(1, 1), stride=(1, 1), groups=512)
          (bn): BatchNorm2d(512, eps=1e-05, momentum=0.1, affine=True, track_running_stats=True)
        )
        (1): SEModule(
          (fc1): Conv2d(512, 128, kernel_size=(1, 1), stride=(1, 1))
          (bn): Identity()
          (act): ReLU(inplace=True)
          (fc2): Conv2d(128, 512, kernel_size=(1, 1), stride=(1, 1))
          (gate): Sigmoid()
        )
      )
      (channel_mixer): Residual(
        (m): Sequential(
          (0): Conv2d_BN(
            (c): Conv2d(512, 1024, kernel_size=(1, 1), stride=(1, 1), bias=False)
            (bn): BatchNorm2d(1024, eps=1e-05, momentum=0.1, affine=True, track_running_stats=True)
          )
          (1): GELU(approximate='none')
          (2): Conv2d_BN(
            (c): Conv2d(1024, 512, kernel_size=(1, 1), stride=(1, 1), bias=False)
            (bn): BatchNorm2d(512, eps=1e-05, momentum=0.1, affine=True, track_running_stats=True)
          )
        )
      )
    )
    (42): RepViTBlock(
      (token_mixer): Sequential(
        (0): RepVGGDW(
          (conv): Conv2d_BN(
            (c): Conv2d(512, 512, kernel_size=(3, 3), stride=(1, 1), padding=(1, 1), groups=512, bias=False)
            (bn): BatchNorm2d(512, eps=1e-05, momentum=0.1, affine=True, track_running_stats=True)
          )
          (conv1): Conv2d(512, 512, kernel_size=(1, 1), stride=(1, 1), groups=512)
          (bn): BatchNorm2d(512, eps=1e-05, momentum=0.1, affine=True, track_running_stats=True)
        )
        (1): Identity()
      )
      (channel_mixer): Residual(
        (m): Sequential(
          (0): Conv2d_BN(
            (c): Conv2d(512, 1024, kernel_size=(1, 1), stride=(1, 1), bias=False)
            (bn): BatchNorm2d(1024, eps=1e-05, momentum=0.1, affine=True, track_running_stats=True)
          )
          (1): GELU(approximate='none')
          (2): Conv2d_BN(
            (c): Conv2d(1024, 512, kernel_size=(1, 1), stride=(1, 1), bias=False)
            (bn): BatchNorm2d(512, eps=1e-05, momentum=0.1, affine=True, track_running_stats=True)
          )
        )
      )
    )
  )
  (classifier): Classfier(
    (classifier): BN_Linear(
      (bn): BatchNorm1d(512, eps=1e-05, momentum=0.1, affine=True, track_running_stats=True)
      (l): Linear(in_features=512, out_features=200, bias=True)
    )
  )
)
{
  "batch_size": 128,
  "epochs": 30,
  "model": "repvit_m1_5",
  "input_size": 224,
  "model_ema": true,
  "model_ema_decay": 0.99996,
  "model_ema_force_cpu": false,
  "opt": "adamw",
  "opt_eps": 1e-08,
  "opt_betas": null,
  "clip_grad": 0.02,
  "clip_mode": "agc",
  "momentum": 0.9,
  "weight_decay": 0.025,
  "sched": "cosine",
  "lr": 0.0025,
…
