…
Creating model: repvit_m1_0
number of params: 6584396
C:\Users\Lu\anaconda3\envs\repvit310\lib\site-packages\timm\utils\cuda.py:40: FutureWarning: `torch.cuda.amp.GradScaler(args...)` is deprecated. Please use `torch.amp.GradScaler('cuda', args...)` instead.
  self._scaler = torch.cuda.amp.GradScaler()
Creating teacher model: regnety_160
Removing key head.fc.weight from pretrained checkpoint
Removing key head.fc.bias from pretrained checkpoint
_IncompatibleKeys(missing_keys=['head.fc.weight', 'head.fc.bias'], unexpected_keys=[])
RepViT(
  (features): ModuleList(
    (0): Sequential(
      (0): Conv2d_BN(
        (c): Conv2d(3, 28, kernel_size=(3, 3), stride=(2, 2), padding=(1, 1), bias=False)
        (bn): BatchNorm2d(28, eps=1e-05, momentum=0.1, affine=True, track_running_stats=True)
      )
      (1): GELU(approximate='none')
      (2): Conv2d_BN(
        (c): Conv2d(28, 56, kernel_size=(3, 3), stride=(2, 2), padding=(1, 1), bias=False)
        (bn): BatchNorm2d(56, eps=1e-05, momentum=0.1, affine=True, track_running_stats=True)
      )
    )
    (1): RepViTBlock(
      (token_mixer): Sequential(
        (0): RepVGGDW(
          (conv): Conv2d_BN(
            (c): Conv2d(56, 56, kernel_size=(3, 3), stride=(1, 1), padding=(1, 1), groups=56, bias=False)
            (bn): BatchNorm2d(56, eps=1e-05, momentum=0.1, affine=True, track_running_stats=True)
          )
          (conv1): Conv2d(56, 56, kernel_size=(1, 1), stride=(1, 1), groups=56)
          (bn): BatchNorm2d(56, eps=1e-05, momentum=0.1, affine=True, track_running_stats=True)
        )
        (1): SEModule(
          (fc1): Conv2d(56, 16, kernel_size=(1, 1), stride=(1, 1))
          (bn): Identity()
          (act): ReLU(inplace=True)
          (fc2): Conv2d(16, 56, kernel_size=(1, 1), stride=(1, 1))
          (gate): Sigmoid()
        )
      )
      (channel_mixer): Residual(
        (m): Sequential(
          (0): Conv2d_BN(
            (c): Conv2d(56, 112, kernel_size=(1, 1), stride=(1, 1), bias=False)
            (bn): BatchNorm2d(112, eps=1e-05, momentum=0.1, affine=True, track_running_stats=True)
          )
          (1): GELU(approximate='none')
          (2): Conv2d_BN(
            (c): Conv2d(112, 56, kernel_size=(1, 1), stride=(1, 1), bias=False)
            (bn): BatchNorm2d(56, eps=1e-05, momentum=0.1, affine=True, track_running_stats=True)
          )
        )
      )
    )
    (2-3): 2 x RepViTBlock(
      (token_mixer): Sequential(
        (0): RepVGGDW(
          (conv): Conv2d_BN(
            (c): Conv2d(56, 56, kernel_size=(3, 3), stride=(1, 1), padding=(1, 1), groups=56, bias=False)
            (bn): BatchNorm2d(56, eps=1e-05, momentum=0.1, affine=True, track_running_stats=True)
          )
          (conv1): Conv2d(56, 56, kernel_size=(1, 1), stride=(1, 1), groups=56)
          (bn): BatchNorm2d(56, eps=1e-05, momentum=0.1, affine=True, track_running_stats=True)
        )
        (1): Identity()
      )
      (channel_mixer): Residual(
        (m): Sequential(
          (0): Conv2d_BN(
            (c): Conv2d(56, 112, kernel_size=(1, 1), stride=(1, 1), bias=False)
            (bn): BatchNorm2d(112, eps=1e-05, momentum=0.1, affine=True, track_running_stats=True)
          )
          (1): GELU(approximate='none')
          (2): Conv2d_BN(
            (c): Conv2d(112, 56, kernel_size=(1, 1), stride=(1, 1), bias=False)
            (bn): BatchNorm2d(56, eps=1e-05, momentum=0.1, affine=True, track_running_stats=True)
          )
        )
      )
    )
    (4): RepViTBlock(
      (token_mixer): Sequential(
        (0): Conv2d_BN(
          (c): Conv2d(56, 56, kernel_size=(3, 3), stride=(2, 2), padding=(1, 1), groups=56, bias=False)
          (bn): BatchNorm2d(56, eps=1e-05, momentum=0.1, affine=True, track_running_stats=True)
        )
        (1): Identity()
        (2): Conv2d_BN(
          (c): Conv2d(56, 112, kernel_size=(1, 1), stride=(1, 1), bias=False)
          (bn): BatchNorm2d(112, eps=1e-05, momentum=0.1, affine=True, track_running_stats=True)
        )
      )
      (channel_mixer): Residual(
        (m): Sequential(
          (0): Conv2d_BN(
            (c): Conv2d(112, 224, kernel_size=(1, 1), stride=(1, 1), bias=False)
            (bn): BatchNorm2d(224, eps=1e-05, momentum=0.1, affine=True, track_running_stats=True)
          )
          (1): GELU(approximate='none')
          (2): Conv2d_BN(
            (c): Conv2d(224, 112, kernel_size=(1, 1), stride=(1, 1), bias=False)
            (bn): BatchNorm2d(112, eps=1e-05, momentum=0.1, affine=True, track_running_stats=True)
          )
        )
      )
    )
    (5): RepViTBlock(
      (token_mixer): Sequential(
        (0): RepVGGDW(
          (conv): Conv2d_BN(
            (c): Conv2d(112, 112, kernel_size=(3, 3), stride=(1, 1), padding=(1, 1), groups=112, bias=False)
            (bn): BatchNorm2d(112, eps=1e-05, momentum=0.1, affine=True, track_running_stats=True)
          )
          (conv1): Conv2d(112, 112, kernel_size=(1, 1), stride=(1, 1), groups=112)
          (bn): BatchNorm2d(112, eps=1e-05, momentum=0.1, affine=True, track_running_stats=True)
        )
        (1): SEModule(
          (fc1): Conv2d(112, 32, kernel_size=(1, 1), stride=(1, 1))
          (bn): Identity()
          (act): ReLU(inplace=True)
          (fc2): Conv2d(32, 112, kernel_size=(1, 1), stride=(1, 1))
          (gate): Sigmoid()
        )
      )
      (channel_mixer): Residual(
        (m): Sequential(
          (0): Conv2d_BN(
            (c): Conv2d(112, 224, kernel_size=(1, 1), stride=(1, 1), bias=False)
            (bn): BatchNorm2d(224, eps=1e-05, momentum=0.1, affine=True, track_running_stats=True)
          )
          (1): GELU(approximate='none')
          (2): Conv2d_BN(
            (c): Conv2d(224, 112, kernel_size=(1, 1), stride=(1, 1), bias=False)
            (bn): BatchNorm2d(112, eps=1e-05, momentum=0.1, affine=True, track_running_stats=True)
          )
        )
      )
    )
    (6-7): 2 x RepViTBlock(
      (token_mixer): Sequential(
        (0): RepVGGDW(
          (conv): Conv2d_BN(
            (c): Conv2d(112, 112, kernel_size=(3, 3), stride=(1, 1), padding=(1, 1), groups=112, bias=False)
            (bn): BatchNorm2d(112, eps=1e-05, momentum=0.1, affine=True, track_running_stats=True)
          )
          (conv1): Conv2d(112, 112, kernel_size=(1, 1), stride=(1, 1), groups=112)
          (bn): BatchNorm2d(112, eps=1e-05, momentum=0.1, affine=True, track_running_stats=True)
        )
        (1): Identity()
      )
      (channel_mixer): Residual(
        (m): Sequential(
          (0): Conv2d_BN(
            (c): Conv2d(112, 224, kernel_size=(1, 1), stride=(1, 1), bias=False)
            (bn): BatchNorm2d(224, eps=1e-05, momentum=0.1, affine=True, track_running_stats=True)
          )
          (1): GELU(approximate='none')
          (2): Conv2d_BN(
            (c): Conv2d(224, 112, kernel_size=(1, 1), stride=(1, 1), bias=False)
            (bn): BatchNorm2d(112, eps=1e-05, momentum=0.1, affine=True, track_running_stats=True)
          )
        )
      )
    )
    (8): RepViTBlock(
      (token_mixer): Sequential(
        (0): Conv2d_BN(
          (c): Conv2d(112, 112, kernel_size=(3, 3), stride=(2, 2), padding=(1, 1), groups=112, bias=False)
          (bn): BatchNorm2d(112, eps=1e-05, momentum=0.1, affine=True, track_running_stats=True)
        )
        (1): Identity()
        (2): Conv2d_BN(
          (c): Conv2d(112, 224, kernel_size=(1, 1), stride=(1, 1), bias=False)
          (bn): BatchNorm2d(224, eps=1e-05, momentum=0.1, affine=True, track_running_stats=True)
        )
      )
      (channel_mixer): Residual(
        (m): Sequential(
          (0): Conv2d_BN(
            (c): Conv2d(224, 448, kernel_size=(1, 1), stride=(1, 1), bias=False)
            (bn): BatchNorm2d(448, eps=1e-05, momentum=0.1, affine=True, track_running_stats=True)
          )
          (1): GELU(approximate='none')
          (2): Conv2d_BN(
            (c): Conv2d(448, 224, kernel_size=(1, 1), stride=(1, 1), bias=False)
            (bn): BatchNorm2d(224, eps=1e-05, momentum=0.1, affine=True, track_running_stats=True)
          )
        )
      )
    )
    (9): RepViTBlock(
      (token_mixer): Sequential(
        (0): RepVGGDW(
          (conv): Conv2d_BN(
            (c): Conv2d(224, 224, kernel_size=(3, 3), stride=(1, 1), padding=(1, 1), groups=224, bias=False)
            (bn): BatchNorm2d(224, eps=1e-05, momentum=0.1, affine=True, track_running_stats=True)
          )
          (conv1): Conv2d(224, 224, kernel_size=(1, 1), stride=(1, 1), groups=224)
          (bn): BatchNorm2d(224, eps=1e-05, momentum=0.1, affine=True, track_running_stats=True)
        )
        (1): SEModule(
          (fc1): Conv2d(224, 56, kernel_size=(1, 1), stride=(1, 1))
          (bn): Identity()
          (act): ReLU(inplace=True)
          (fc2): Conv2d(56, 224, kernel_size=(1, 1), stride=(1, 1))
          (gate): Sigmoid()
        )
      )
      (channel_mixer): Residual(
        (m): Sequential(
          (0): Conv2d_BN(
            (c): Conv2d(224, 448, kernel_size=(1, 1), stride=(1, 1), bias=False)
            (bn): BatchNorm2d(448, eps=1e-05, momentum=0.1, affine=True, track_running_stats=True)
          )
          (1): GELU(approximate='none')
          (2): Conv2d_BN(
            (c): Conv2d(448, 224, kernel_size=(1, 1), stride=(1, 1), bias=False)
            (bn): BatchNorm2d(224, eps=1e-05, momentum=0.1, affine=True, track_running_stats=True)
          )
        )
      )
    )
    (10): RepViTBlock(
      (token_mixer): Sequential(
        (0): RepVGGDW(
          (conv): Conv2d_BN(
            (c): Conv2d(224, 224, kernel_size=(3, 3), stride=(1, 1), padding=(1, 1), groups=224, bias=False)
            (bn): BatchNorm2d(224, eps=1e-05, momentum=0.1, affine=True, track_running_stats=True)
          )
          (conv1): Conv2d(224, 224, kernel_size=(1, 1), stride=(1, 1), groups=224)
          (bn): BatchNorm2d(224, eps=1e-05, momentum=0.1, affine=True, track_running_stats=True)
        )
        (1): Identity()
      )
      (channel_mixer): Residual(
        (m): Sequential(
          (0): Conv2d_BN(
            (c): Conv2d(224, 448, kernel_size=(1, 1), stride=(1, 1), bias=False)
            (bn): BatchNorm2d(448, eps=1e-05, momentum=0.1, affine=True, track_running_stats=True)
          )
          (1): GELU(approximate='none')
          (2): Conv2d_BN(
            (c): Conv2d(448, 224, kernel_size=(1, 1), stride=(1, 1), bias=False)
            (bn): BatchNorm2d(224, eps=1e-05, momentum=0.1, affine=True, track_running_stats=True)
          )
        )
      )
    )
    (11): RepViTBlock(
      (token_mixer): Sequential(
        (0): RepVGGDW(
          (conv): Conv2d_BN(
            (c): Conv2d(224, 224, kernel_size=(3, 3), stride=(1, 1), padding=(1, 1), groups=224, bias=False)
            (bn): BatchNorm2d(224, eps=1e-05, momentum=0.1, affine=True, track_running_stats=True)
          )
          (conv1): Conv2d(224, 224, kernel_size=(1, 1), stride=(1, 1), groups=224)
          (bn): BatchNorm2d(224, eps=1e-05, momentum=0.1, affine=True, track_running_stats=True)
        )
        (1): SEModule(
          (fc1): Conv2d(224, 56, kernel_size=(1, 1), stride=(1, 1))
          (bn): Identity()
          (act): ReLU(inplace=True)
          (fc2): Conv2d(56, 224, kernel_size=(1, 1), stride=(1, 1))
          (gate): Sigmoid()
        )
      )
      (channel_mixer): Residual(
        (m): Sequential(
          (0): Conv2d_BN(
            (c): Conv2d(224, 448, kernel_size=(1, 1), stride=(1, 1), bias=False)
            (bn): BatchNorm2d(448, eps=1e-05, momentum=0.1, affine=True, track_running_stats=True)
          )
          (1): GELU(approximate='none')
          (2): Conv2d_BN(
            (c): Conv2d(448, 224, kernel_size=(1, 1), stride=(1, 1), bias=False)
            (bn): BatchNorm2d(224, eps=1e-05, momentum=0.1, affine=True, track_running_stats=True)
          )
        )
      )
    )
    (12): RepViTBlock(
      (token_mixer): Sequential(
        (0): RepVGGDW(
          (conv): Conv2d_BN(
            (c): Conv2d(224, 224, kernel_size=(3, 3), stride=(1, 1), padding=(1, 1), groups=224, bias=False)
            (bn): BatchNorm2d(224, eps=1e-05, momentum=0.1, affine=True, track_running_stats=True)
          )
          (conv1): Conv2d(224, 224, kernel_size=(1, 1), stride=(1, 1), groups=224)
          (bn): BatchNorm2d(224, eps=1e-05, momentum=0.1, affine=True, track_running_stats=True)
        )
        (1): Identity()
      )
      (channel_mixer): Residual(
        (m): Sequential(
          (0): Conv2d_BN(
            (c): Conv2d(224, 448, kernel_size=(1, 1), stride=(1, 1), bias=False)
            (bn): BatchNorm2d(448, eps=1e-05, momentum=0.1, affine=True, track_running_stats=True)
          )
          (1): GELU(approximate='none')
          (2): Conv2d_BN(
            (c): Conv2d(448, 224, kernel_size=(1, 1), stride=(1, 1), bias=False)
            (bn): BatchNorm2d(224, eps=1e-05, momentum=0.1, affine=True, track_running_stats=True)
          )
        )
      )
    )
    (13): RepViTBlock(
      (token_mixer): Sequential(
        (0): RepVGGDW(
          (conv): Conv2d_BN(
            (c): Conv2d(224, 224, kernel_size=(3, 3), stride=(1, 1), padding=(1, 1), groups=224, bias=False)
            (bn): BatchNorm2d(224, eps=1e-05, momentum=0.1, affine=True, track_running_stats=True)
          )
          (conv1): Conv2d(224, 224, kernel_size=(1, 1), stride=(1, 1), groups=224)
          (bn): BatchNorm2d(224, eps=1e-05, momentum=0.1, affine=True, track_running_stats=True)
        )
        (1): SEModule(
          (fc1): Conv2d(224, 56, kernel_size=(1, 1), stride=(1, 1))
          (bn): Identity()
          (act): ReLU(inplace=True)
          (fc2): Conv2d(56, 224, kernel_size=(1, 1), stride=(1, 1))
          (gate): Sigmoid()
        )
      )
      (channel_mixer): Residual(
        (m): Sequential(
          (0): Conv2d_BN(
            (c): Conv2d(224, 448, kernel_size=(1, 1), stride=(1, 1), bias=False)
            (bn): BatchNorm2d(448, eps=1e-05, momentum=0.1, affine=True, track_running_stats=True)
          )
          (1): GELU(approximate='none')
          (2): Conv2d_BN(
            (c): Conv2d(448, 224, kernel_size=(1, 1), stride=(1, 1), bias=False)
            (bn): BatchNorm2d(224, eps=1e-05, momentum=0.1, affine=True, track_running_stats=True)
          )
        )
      )
    )
    (14): RepViTBlock(
      (token_mixer): Sequential(
        (0): RepVGGDW(
          (conv): Conv2d_BN(
            (c): Conv2d(224, 224, kernel_size=(3, 3), stride=(1, 1), padding=(1, 1), groups=224, bias=False)
            (bn): BatchNorm2d(224, eps=1e-05, momentum=0.1, affine=True, track_running_stats=True)
          )
          (conv1): Conv2d(224, 224, kernel_size=(1, 1), stride=(1, 1), groups=224)
          (bn): BatchNorm2d(224, eps=1e-05, momentum=0.1, affine=True, track_running_stats=True)
        )
        (1): Identity()
      )
      (channel_mixer): Residual(
        (m): Sequential(
          (0): Conv2d_BN(
            (c): Conv2d(224, 448, kernel_size=(1, 1), stride=(1, 1), bias=False)
            (bn): BatchNorm2d(448, eps=1e-05, momentum=0.1, affine=True, track_running_stats=True)
          )
          (1): GELU(approximate='none')
          (2): Conv2d_BN(
            (c): Conv2d(448, 224, kernel_size=(1, 1), stride=(1, 1), bias=False)
            (bn): BatchNorm2d(224, eps=1e-05, momentum=0.1, affine=True, track_running_stats=True)
          )
        )
      )
    )
    (15): RepViTBlock(
      (token_mixer): Sequential(
        (0): RepVGGDW(
          (conv): Conv2d_BN(
            (c): Conv2d(224, 224, kernel_size=(3, 3), stride=(1, 1), padding=(1, 1), groups=224, bias=False)
            (bn): BatchNorm2d(224, eps=1e-05, momentum=0.1, affine=True, track_running_stats=True)
          )
          (conv1): Conv2d(224, 224, kernel_size=(1, 1), stride=(1, 1), groups=224)
          (bn): BatchNorm2d(224, eps=1e-05, momentum=0.1, affine=True, track_running_stats=True)
        )
        (1): SEModule(
          (fc1): Conv2d(224, 56, kernel_size=(1, 1), stride=(1, 1))
          (bn): Identity()
          (act): ReLU(inplace=True)
          (fc2): Conv2d(56, 224, kernel_size=(1, 1), stride=(1, 1))
          (gate): Sigmoid()
        )
      )
      (channel_mixer): Residual(
        (m): Sequential(
          (0): Conv2d_BN(
            (c): Conv2d(224, 448, kernel_size=(1, 1), stride=(1, 1), bias=False)
            (bn): BatchNorm2d(448, eps=1e-05, momentum=0.1, affine=True, track_running_stats=True)
          )
          (1): GELU(approximate='none')
          (2): Conv2d_BN(
            (c): Conv2d(448, 224, kernel_size=(1, 1), stride=(1, 1), bias=False)
            (bn): BatchNorm2d(224, eps=1e-05, momentum=0.1, affine=True, track_running_stats=True)
          )
        )
      )
    )
    (16): RepViTBlock(
      (token_mixer): Sequential(
        (0): RepVGGDW(
          (conv): Conv2d_BN(
            (c): Conv2d(224, 224, kernel_size=(3, 3), stride=(1, 1), padding=(1, 1), groups=224, bias=False)
            (bn): BatchNorm2d(224, eps=1e-05, momentum=0.1, affine=True, track_running_stats=True)
          )
          (conv1): Conv2d(224, 224, kernel_size=(1, 1), stride=(1, 1), groups=224)
          (bn): BatchNorm2d(224, eps=1e-05, momentum=0.1, affine=True, track_running_stats=True)
        )
        (1): Identity()
      )
      (channel_mixer): Residual(
        (m): Sequential(
          (0): Conv2d_BN(
            (c): Conv2d(224, 448, kernel_size=(1, 1), stride=(1, 1), bias=False)
            (bn): BatchNorm2d(448, eps=1e-05, momentum=0.1, affine=True, track_running_stats=True)
          )
          (1): GELU(approximate='none')
          (2): Conv2d_BN(
            (c): Conv2d(448, 224, kernel_size=(1, 1), stride=(1, 1), bias=False)
            (bn): BatchNorm2d(224, eps=1e-05, momentum=0.1, affine=True, track_running_stats=True)
          )
        )
      )
    )
    (17): RepViTBlock(
      (token_mixer): Sequential(
        (0): RepVGGDW(
          (conv): Conv2d_BN(
            (c): Conv2d(224, 224, kernel_size=(3, 3), stride=(1, 1), padding=(1, 1), groups=224, bias=False)
            (bn): BatchNorm2d(224, eps=1e-05, momentum=0.1, affine=True, track_running_stats=True)
          )
          (conv1): Conv2d(224, 224, kernel_size=(1, 1), stride=(1, 1), groups=224)
          (bn): BatchNorm2d(224, eps=1e-05, momentum=0.1, affine=True, track_running_stats=True)
        )
        (1): SEModule(
          (fc1): Conv2d(224, 56, kernel_size=(1, 1), stride=(1, 1))
          (bn): Identity()
          (act): ReLU(inplace=True)
          (fc2): Conv2d(56, 224, kernel_size=(1, 1), stride=(1, 1))
          (gate): Sigmoid()
        )
      )
      (channel_mixer): Residual(
        (m): Sequential(
          (0): Conv2d_BN(
            (c): Conv2d(224, 448, kernel_size=(1, 1), stride=(1, 1), bias=False)
            (bn): BatchNorm2d(448, eps=1e-05, momentum=0.1, affine=True, track_running_stats=True)
          )
          (1): GELU(approximate='none')
          (2): Conv2d_BN(
            (c): Conv2d(448, 224, kernel_size=(1, 1), stride=(1, 1), bias=False)
            (bn): BatchNorm2d(224, eps=1e-05, momentum=0.1, affine=True, track_running_stats=True)
          )
        )
      )
    )
    (18): RepViTBlock(
      (token_mixer): Sequential(
        (0): RepVGGDW(
          (conv): Conv2d_BN(
            (c): Conv2d(224, 224, kernel_size=(3, 3), stride=(1, 1), padding=(1, 1), groups=224, bias=False)
            (bn): BatchNorm2d(224, eps=1e-05, momentum=0.1, affine=True, track_running_stats=True)
          )
          (conv1): Conv2d(224, 224, kernel_size=(1, 1), stride=(1, 1), groups=224)
          (bn): BatchNorm2d(224, eps=1e-05, momentum=0.1, affine=True, track_running_stats=True)
        )
        (1): Identity()
      )
      (channel_mixer): Residual(
        (m): Sequential(
          (0): Conv2d_BN(
            (c): Conv2d(224, 448, kernel_size=(1, 1), stride=(1, 1), bias=False)
            (bn): BatchNorm2d(448, eps=1e-05, momentum=0.1, affine=True, track_running_stats=True)
          )
          (1): GELU(approximate='none')
          (2): Conv2d_BN(
            (c): Conv2d(448, 224, kernel_size=(1, 1), stride=(1, 1), bias=False)
            (bn): BatchNorm2d(224, eps=1e-05, momentum=0.1, affine=True, track_running_stats=True)
          )
        )
      )
    )
    (19): RepViTBlock(
      (token_mixer): Sequential(
        (0): RepVGGDW(
          (conv): Conv2d_BN(
            (c): Conv2d(224, 224, kernel_size=(3, 3), stride=(1, 1), padding=(1, 1), groups=224, bias=False)
            (bn): BatchNorm2d(224, eps=1e-05, momentum=0.1, affine=True, track_running_stats=True)
          )
          (conv1): Conv2d(224, 224, kernel_size=(1, 1), stride=(1, 1), groups=224)
          (bn): BatchNorm2d(224, eps=1e-05, momentum=0.1, affine=True, track_running_stats=True)
        )
        (1): SEModule(
          (fc1): Conv2d(224, 56, kernel_size=(1, 1), stride=(1, 1))
          (bn): Identity()
          (act): ReLU(inplace=True)
          (fc2): Conv2d(56, 224, kernel_size=(1, 1), stride=(1, 1))
          (gate): Sigmoid()
        )
      )
      (channel_mixer): Residual(
        (m): Sequential(
          (0): Conv2d_BN(
            (c): Conv2d(224, 448, kernel_size=(1, 1), stride=(1, 1), bias=False)
            (bn): BatchNorm2d(448, eps=1e-05, momentum=0.1, affine=True, track_running_stats=True)
          )
          (1): GELU(approximate='none')
          (2): Conv2d_BN(
            (c): Conv2d(448, 224, kernel_size=(1, 1), stride=(1, 1), bias=False)
            (bn): BatchNorm2d(224, eps=1e-05, momentum=0.1, affine=True, track_running_stats=True)
          )
        )
      )
    )
    (20): RepViTBlock(
      (token_mixer): Sequential(
        (0): RepVGGDW(
          (conv): Conv2d_BN(
            (c): Conv2d(224, 224, kernel_size=(3, 3), stride=(1, 1), padding=(1, 1), groups=224, bias=False)
            (bn): BatchNorm2d(224, eps=1e-05, momentum=0.1, affine=True, track_running_stats=True)
          )
          (conv1): Conv2d(224, 224, kernel_size=(1, 1), stride=(1, 1), groups=224)
          (bn): BatchNorm2d(224, eps=1e-05, momentum=0.1, affine=True, track_running_stats=True)
        )
        (1): Identity()
      )
      (channel_mixer): Residual(
        (m): Sequential(
          (0): Conv2d_BN(
            (c): Conv2d(224, 448, kernel_size=(1, 1), stride=(1, 1), bias=False)
            (bn): BatchNorm2d(448, eps=1e-05, momentum=0.1, affine=True, track_running_stats=True)
          )
          (1): GELU(approximate='none')
          (2): Conv2d_BN(
            (c): Conv2d(448, 224, kernel_size=(1, 1), stride=(1, 1), bias=False)
            (bn): BatchNorm2d(224, eps=1e-05, momentum=0.1, affine=True, track_running_stats=True)
          )
        )
      )
    )
    (21): RepViTBlock(
      (token_mixer): Sequential(
        (0): RepVGGDW(
          (conv): Conv2d_BN(
            (c): Conv2d(224, 224, kernel_size=(3, 3), stride=(1, 1), padding=(1, 1), groups=224, bias=False)
            (bn): BatchNorm2d(224, eps=1e-05, momentum=0.1, affine=True, track_running_stats=True)
          )
          (conv1): Conv2d(224, 224, kernel_size=(1, 1), stride=(1, 1), groups=224)
          (bn): BatchNorm2d(224, eps=1e-05, momentum=0.1, affine=True, track_running_stats=True)
        )
        (1): SEModule(
          (fc1): Conv2d(224, 56, kernel_size=(1, 1), stride=(1, 1))
          (bn): Identity()
          (act): ReLU(inplace=True)
          (fc2): Conv2d(56, 224, kernel_size=(1, 1), stride=(1, 1))
          (gate): Sigmoid()
        )
      )
      (channel_mixer): Residual(
        (m): Sequential(
          (0): Conv2d_BN(
            (c): Conv2d(224, 448, kernel_size=(1, 1), stride=(1, 1), bias=False)
            (bn): BatchNorm2d(448, eps=1e-05, momentum=0.1, affine=True, track_running_stats=True)
          )
          (1): GELU(approximate='none')
          (2): Conv2d_BN(
            (c): Conv2d(448, 224, kernel_size=(1, 1), stride=(1, 1), bias=False)
            (bn): BatchNorm2d(224, eps=1e-05, momentum=0.1, affine=True, track_running_stats=True)
          )
        )
      )
    )
    (22-23): 2 x RepViTBlock(
      (token_mixer): Sequential(
        (0): RepVGGDW(
          (conv): Conv2d_BN(
            (c): Conv2d(224, 224, kernel_size=(3, 3), stride=(1, 1), padding=(1, 1), groups=224, bias=False)
            (bn): BatchNorm2d(224, eps=1e-05, momentum=0.1, affine=True, track_running_stats=True)
          )
          (conv1): Conv2d(224, 224, kernel_size=(1, 1), stride=(1, 1), groups=224)
          (bn): BatchNorm2d(224, eps=1e-05, momentum=0.1, affine=True, track_running_stats=True)
        )
        (1): Identity()
      )
      (channel_mixer): Residual(
        (m): Sequential(
          (0): Conv2d_BN(
            (c): Conv2d(224, 448, kernel_size=(1, 1), stride=(1, 1), bias=False)
            (bn): BatchNorm2d(448, eps=1e-05, momentum=0.1, affine=True, track_running_stats=True)
          )
          (1): GELU(approximate='none')
          (2): Conv2d_BN(
            (c): Conv2d(448, 224, kernel_size=(1, 1), stride=(1, 1), bias=False)
            (bn): BatchNorm2d(224, eps=1e-05, momentum=0.1, affine=True, track_running_stats=True)
          )
        )
      )
    )
    (24): RepViTBlock(
      (token_mixer): Sequential(
        (0): Conv2d_BN(
          (c): Conv2d(224, 224, kernel_size=(3, 3), stride=(2, 2), padding=(1, 1), groups=224, bias=False)
          (bn): BatchNorm2d(224, eps=1e-05, momentum=0.1, affine=True, track_running_stats=True)
        )
        (1): Identity()
        (2): Conv2d_BN(
          (c): Conv2d(224, 448, kernel_size=(1, 1), stride=(1, 1), bias=False)
          (bn): BatchNorm2d(448, eps=1e-05, momentum=0.1, affine=True, track_running_stats=True)
        )
      )
      (channel_mixer): Residual(
        (m): Sequential(
          (0): Conv2d_BN(
            (c): Conv2d(448, 896, kernel_size=(1, 1), stride=(1, 1), bias=False)
            (bn): BatchNorm2d(896, eps=1e-05, momentum=0.1, affine=True, track_running_stats=True)
          )
          (1): GELU(approximate='none')
          (2): Conv2d_BN(
            (c): Conv2d(896, 448, kernel_size=(1, 1), stride=(1, 1), bias=False)
            (bn): BatchNorm2d(448, eps=1e-05, momentum=0.1, affine=True, track_running_stats=True)
          )
        )
      )
    )
    (25): RepViTBlock(
      (token_mixer): Sequential(
        (0): RepVGGDW(
          (conv): Conv2d_BN(
            (c): Conv2d(448, 448, kernel_size=(3, 3), stride=(1, 1), padding=(1, 1), groups=448, bias=False)
            (bn): BatchNorm2d(448, eps=1e-05, momentum=0.1, affine=True, track_running_stats=True)
          )
          (conv1): Conv2d(448, 448, kernel_size=(1, 1), stride=(1, 1), groups=448)
          (bn): BatchNorm2d(448, eps=1e-05, momentum=0.1, affine=True, track_running_stats=True)
        )
        (1): SEModule(
          (fc1): Conv2d(448, 112, kernel_size=(1, 1), stride=(1, 1))
          (bn): Identity()
          (act): ReLU(inplace=True)
          (fc2): Conv2d(112, 448, kernel_size=(1, 1), stride=(1, 1))
          (gate): Sigmoid()
        )
      )
      (channel_mixer): Residual(
        (m): Sequential(
          (0): Conv2d_BN(
            (c): Conv2d(448, 896, kernel_size=(1, 1), stride=(1, 1), bias=False)
            (bn): BatchNorm2d(896, eps=1e-05, momentum=0.1, affine=True, track_running_stats=True)
          )
          (1): GELU(approximate='none')
          (2): Conv2d_BN(
            (c): Conv2d(896, 448, kernel_size=(1, 1), stride=(1, 1), bias=False)
            (bn): BatchNorm2d(448, eps=1e-05, momentum=0.1, affine=True, track_running_stats=True)
          )
        )
      )
    )
    (26): RepViTBlock(
      (token_mixer): Sequential(
        (0): RepVGGDW(
          (conv): Conv2d_BN(
            (c): Conv2d(448, 448, kernel_size=(3, 3), stride=(1, 1), padding=(1, 1), groups=448, bias=False)
            (bn): BatchNorm2d(448, eps=1e-05, momentum=0.1, affine=True, track_running_stats=True)
          )
          (conv1): Conv2d(448, 448, kernel_size=(1, 1), stride=(1, 1), groups=448)
          (bn): BatchNorm2d(448, eps=1e-05, momentum=0.1, affine=True, track_running_stats=True)
        )
        (1): Identity()
      )
      (channel_mixer): Residual(
        (m): Sequential(
          (0): Conv2d_BN(
            (c): Conv2d(448, 896, kernel_size=(1, 1), stride=(1, 1), bias=False)
            (bn): BatchNorm2d(896, eps=1e-05, momentum=0.1, affine=True, track_running_stats=True)
          )
          (1): GELU(approximate='none')
          (2): Conv2d_BN(
            (c): Conv2d(896, 448, kernel_size=(1, 1), stride=(1, 1), bias=False)
            (bn): BatchNorm2d(448, eps=1e-05, momentum=0.1, affine=True, track_running_stats=True)
          )
        )
      )
    )
  )
  (classifier): Classfier(
    (classifier): BN_Linear(
      (bn): BatchNorm1d(448, eps=1e-05, momentum=0.1, affine=True, track_running_stats=True)
      (l): Linear(in_features=448, out_features=200, bias=True)
    )
    (classifier_dist): BN_Linear(
      (bn): BatchNorm1d(448, eps=1e-05, momentum=0.1, affine=True, track_running_stats=True)
      (l): Linear(in_features=448, out_features=200, bias=True)
    )
  )
)
{
  "batch_size": 128,
  "epochs": 20,
  "model": "repvit_m1_0",
  "input_size": 224,
  "model_ema": true,
  "model_ema_decay": 0.99996,
  "model_ema_force_cpu": false,
  "opt": "adamw",
  "opt_eps": 1e-08,
  "opt_betas": null,
  "clip_grad": 0.02,
  "clip_mode": "agc",
  "momentum": 0.9,
  "weight_decay": 0.025,
  "sched": "cosine",
  "lr": 0.0025,
…
